…
/home/ethan.church/software/miniconda3/envs/gpu_tflow/lib/python3.11/site-packages/keras/src/layers/activations/leaky_relu.py:41: UserWarning: Argument `alpha` is deprecated. Use `negative_slope` instead.
  warnings.warn(
starting loading in the data
finished loading in data
reshaping the data
(1, 435, 1)
making a dataset
getting a validation sample
finished splitting the validation
Model: "sequential"
┏━━━━━━━━━━━━━━━━━━━━━━━━━━━━━━━━━┳━━━━━━━━━━━━━━━━━━━━━━━━┳━━━━━━━━━━━━━━━┓
┃ Layer (type)                    ┃ Output Shape           ┃       Param # ┃
┡━━━━━━━━━━━━━━━━━━━━━━━━━━━━━━━━━╇━━━━━━━━━━━━━━━━━━━━━━━━╇━━━━━━━━━━━━━━━┩
│ conv1d (Conv1D)                 │ (None, 435, 20)        │            80 │
├─────────────────────────────────┼────────────────────────┼───────────────┤
│ leaky_re_lu (LeakyReLU)         │ (None, 435, 20)        │             0 │
├─────────────────────────────────┼────────────────────────┼───────────────┤
│ batch_normalization             │ (None, 435, 20)        │            80 │
│ (BatchNormalization)            │                        │               │
├─────────────────────────────────┼────────────────────────┼───────────────┤
│ max_pooling1d (MaxPooling1D)    │ (None, 217, 20)        │             0 │
├─────────────────────────────────┼────────────────────────┼───────────────┤
│ conv1d_1 (Conv1D)               │ (None, 217, 40)        │         2,440 │
├─────────────────────────────────┼────────────────────────┼───────────────┤
│ leaky_re_lu_1 (LeakyReLU)       │ (None, 217, 40)        │             0 │
├─────────────────────────────────┼────────────────────────┼───────────────┤
│ max_pooling1d_1 (MaxPooling1D)  │ (None, 108, 40)        │             0 │
├─────────────────────────────────┼────────────────────────┼───────────────┤
│ dropout (Dropout)               │ (None, 108, 40)        │             0 │
├─────────────────────────────────┼────────────────────────┼───────────────┤
│ conv1d_2 (Conv1D)               │ (None, 108, 80)        │         9,680 │
├─────────────────────────────────┼────────────────────────┼───────────────┤
│ leaky_re_lu_2 (LeakyReLU)       │ (None, 108, 80)        │             0 │
├─────────────────────────────────┼────────────────────────┼───────────────┤
│ batch_normalization_1           │ (None, 108, 80)        │           320 │
│ (BatchNormalization)            │                        │               │
├─────────────────────────────────┼────────────────────────┼───────────────┤
│ max_pooling1d_2 (MaxPooling1D)  │ (None, 54, 80)         │             0 │
├─────────────────────────────────┼────────────────────────┼───────────────┤
│ conv1d_3 (Conv1D)               │ (None, 54, 160)        │        38,560 │
├─────────────────────────────────┼────────────────────────┼───────────────┤
│ leaky_re_lu_3 (LeakyReLU)       │ (None, 54, 160)        │             0 │
├─────────────────────────────────┼────────────────────────┼───────────────┤
│ batch_normalization_2           │ (None, 54, 160)        │           640 │
│ (BatchNormalization)            │                        │               │
├─────────────────────────────────┼────────────────────────┼───────────────┤
│ max_pooling1d_3 (MaxPooling1D)  │ (None, 27, 160)        │             0 │
├─────────────────────────────────┼────────────────────────┼───────────────┤
│ dropout_1 (Dropout)             │ (None, 27, 160)        │             0 │
├─────────────────────────────────┼────────────────────────┼───────────────┤
│ conv1d_4 (Conv1D)               │ (None, 27, 320)        │       153,920 │
├─────────────────────────────────┼────────────────────────┼───────────────┤
│ leaky_re_lu_4 (LeakyReLU)       │ (None, 27, 320)        │             0 │
├─────────────────────────────────┼────────────────────────┼───────────────┤
│ batch_normalization_3           │ (None, 27, 320)        │         1,280 │
│ (BatchNormalization)            │                        │               │
├─────────────────────────────────┼────────────────────────┼───────────────┤
│ max_pooling1d_4 (MaxPooling1D)  │ (None, 13, 320)        │             0 │
├─────────────────────────────────┼────────────────────────┼───────────────┤
│ flatten (Flatten)               │ (None, 4160)           │             0 │
├─────────────────────────────────┼────────────────────────┼───────────────┤
│ dropout_2 (Dropout)             │ (None, 4160)           │             0 │
├─────────────────────────────────┼────────────────────────┼───────────────┤
│ dense (Dense)                   │ (None, 1)              │         4,161 │
└─────────────────────────────────┴────────────────────────┴───────────────┘
 Total params: 211,161 (824.85 KB)
 Trainable params: 210,001 (820.32 KB)
 Non-trainable params: 1,160 (4.53 KB)
958464/958464 - 3467s - 4ms/step - loss: 0.0547 - mae: 0.0767 - mse: 0.0452 - val_loss: 0.0158 - val_mae: 0.0565 - val_mse: 0.0158
making a predicted image on the validation data
want shape to be (64x64x26,435) actual shape was (106496, 1, 435, 1)
…
