…
To enable the following instructions: AVX2 AVX512F AVX512_VNNI FMA, in other operations, rebuild TensorFlow with the appropriate compiler flags.
2024-08-15 11:08:06.583602: W tensorflow/compiler/tf2tensorrt/utils/py_utils.cc:38] TF-TRT Warning: Could not find TensorRT
starting loading in the data
finished loading in data
reshaping the data
making a dataset
getting a validation sample
finished splitting the validation
Model: "sequential"
┏━━━━━━━━━━━━━━━━━━━━━━━━━━━━━━━━━┳━━━━━━━━━━━━━━━━━━━━━━━━┳━━━━━━━━━━━━━━━┓
┃ Layer (type)                    ┃ Output Shape           ┃       Param # ┃
┡━━━━━━━━━━━━━━━━━━━━━━━━━━━━━━━━━╇━━━━━━━━━━━━━━━━━━━━━━━━╇━━━━━━━━━━━━━━━┩
│ separable_conv1d                │ (None, 435, 20)        │            43 │
│ (SeparableConv1D)               │                        │               │
├─────────────────────────────────┼────────────────────────┼───────────────┤
│ batch_normalization             │ (None, 435, 20)        │            80 │
│ (BatchNormalization)            │                        │               │
├─────────────────────────────────┼────────────────────────┼───────────────┤
│ max_pooling1d (MaxPooling1D)    │ (None, 217, 20)        │             0 │
├─────────────────────────────────┼────────────────────────┼───────────────┤
│ separable_conv1d_1              │ (None, 217, 40)        │           900 │
│ (SeparableConv1D)               │                        │               │
├─────────────────────────────────┼────────────────────────┼───────────────┤
│ batch_normalization_1           │ (None, 217, 40)        │           160 │
│ (BatchNormalization)            │                        │               │
├─────────────────────────────────┼────────────────────────┼───────────────┤
│ max_pooling1d_1 (MaxPooling1D)  │ (None, 108, 40)        │             0 │
├─────────────────────────────────┼────────────────────────┼───────────────┤
│ separable_conv1d_2              │ (None, 108, 80)        │         3,400 │
│ (SeparableConv1D)               │                        │               │
├─────────────────────────────────┼────────────────────────┼───────────────┤
│ batch_normalization_2           │ (None, 108, 80)        │           320 │
│ (BatchNormalization)            │                        │               │
├─────────────────────────────────┼────────────────────────┼───────────────┤
│ max_pooling1d_2 (MaxPooling1D)  │ (None, 54, 80)         │             0 │
├─────────────────────────────────┼────────────────────────┼───────────────┤
│ separable_conv1d_3              │ (None, 54, 120)        │         9,960 │
│ (SeparableConv1D)               │                        │               │
├─────────────────────────────────┼────────────────────────┼───────────────┤
│ batch_normalization_3           │ (None, 54, 120)        │           480 │
│ (BatchNormalization)            │                        │               │
├─────────────────────────────────┼────────────────────────┼───────────────┤
│ max_pooling1d_3 (MaxPooling1D)  │ (None, 27, 120)        │             0 │
├─────────────────────────────────┼────────────────────────┼───────────────┤
│ separable_conv1d_4              │ (None, 27, 240)        │        29,400 │
│ (SeparableConv1D)               │                        │               │
├─────────────────────────────────┼────────────────────────┼───────────────┤
│ batch_normalization_4           │ (None, 27, 240)        │           960 │
│ (BatchNormalization)            │                        │               │
├─────────────────────────────────┼────────────────────────┼───────────────┤
│ max_pooling1d_4 (MaxPooling1D)  │ (None, 13, 240)        │             0 │
├─────────────────────────────────┼────────────────────────┼───────────────┤
│ flatten (Flatten)               │ (None, 3120)           │             0 │
├─────────────────────────────────┼────────────────────────┼───────────────┤
│ dropout (Dropout)               │ (None, 3120)           │             0 │
├─────────────────────────────────┼────────────────────────┼───────────────┤
│ dense (Dense)                   │ (None, 1)              │         3,121 │
└─────────────────────────────────┴────────────────────────┴───────────────┘
 Total params: 48,824 (190.72 KB)
 Trainable params: 47,824 (186.81 KB)
 Non-trainable params: 1,000 (3.91 KB)
Epoch 1/20
958464/958464 - 3281s - 3ms/step - loss: 0.0304 - mse: 0.0304 - val_loss: 62420488.0000 - val_mse: 62420488.0000
Epoch 2/20
958464/958464 - 3354s - 3ms/step - loss: 0.0173 - mse: 0.0173 - val_loss: 9577.4199 - val_mse: 9577.4199
…
